…
model from torchvision...
==========================================================================================================================================================================
Layer (type:depth-idx)                        Input Shape               Output Shape              Param #                   Kernel Shape              Mult-Adds
==========================================================================================================================================================================
VisionTransformer                             [1, 3, 224, 224]          [1, 1000]                 768                       --                        --
├─Conv2d: 1-1                                 [1, 3, 224, 224]          [1, 768, 14, 14]          590,592                   [16, 16]                  115,756,032
├─Encoder: 1-2                                [1, 197, 768]             [1, 197, 768]             151,296                   --                        --
│    └─Dropout: 2-1                           [1, 197, 768]             [1, 197, 768]             --                        --                        --
│    └─Sequential: 2-2                        [1, 197, 768]             [1, 197, 768]             --                        --                        --
│    │    └─EncoderBlock: 3-1                 [1, 197, 768]             [1, 197, 768]             --                        --                        --
│    │    │    └─LayerNorm: 4-1               [1, 197, 768]             [1, 197, 768]             1,536                     --                        1,536
│    │    │    └─MultiheadAttention: 4-2      [1, 197, 768]             [1, 197, 768]             2,362,368                 --                        0
│    │    │    └─Dropout: 4-3                 [1, 197, 768]             [1, 197, 768]             --                        --                        --
│    │    │    └─LayerNorm: 4-4               [1, 197, 768]             [1, 197, 768]             1,536                     --                        1,536
│    │    │    └─MLPBlock: 4-5                [1, 197, 768]             [1, 197, 768]             4,722,432                 --                        4,722,432
│    │    └─EncoderBlock: 3-2                 [1, 197, 768]             [1, 197, 768]             --                        --                        --
│    │    │    └─LayerNorm: 4-6               [1, 197, 768]             [1, 197, 768]             1,536                     --                        1,536
│    │    │    └─MultiheadAttention: 4-7      [1, 197, 768]             [1, 197, 768]             2,362,368                 --                        0
│    │    │    └─Dropout: 4-8                 [1, 197, 768]             [1, 197, 768]             --                        --                        --
│    │    │    └─LayerNorm: 4-9               [1, 197, 768]             [1, 197, 768]             1,536                     --                        1,536
│    │    │    └─MLPBlock: 4-10               [1, 197, 768]             [1, 197, 768]             4,722,432                 --                        4,722,432
│    │    └─EncoderBlock: 3-3                 [1, 197, 768]             [1, 197, 768]             --                        --                        --
│    │    │    └─LayerNorm: 4-11              [1, 197, 768]             [1, 197, 768]             1,536                     --                        1,536
│    │    │    └─MultiheadAttention: 4-12     [1, 197, 768]             [1, 197, 768]             2,362,368                 --                        0
│    │    │    └─Dropout: 4-13                [1, 197, 768]             [1, 197, 768]             --                        --                        --
│    │    │    └─LayerNorm: 4-14              [1, 197, 768]             [1, 197, 768]             1,536                     --                        1,536
│    │    │    └─MLPBlock: 4-15               [1, 197, 768]             [1, 197, 768]             4,722,432                 --                        4,722,432
│    │    └─EncoderBlock: 3-4                 [1, 197, 768]             [1, 197, 768]             --                        --                        --
│    │    │    └─LayerNorm: 4-16              [1, 197, 768]             [1, 197, 768]             1,536                     --                        1,536
│    │    │    └─MultiheadAttention: 4-17     [1, 197, 768]             [1, 197, 768]             2,362,368                 --                        0
│    │    │    └─Dropout: 4-18                [1, 197, 768]             [1, 197, 768]             --                        --                        --
│    │    │    └─LayerNorm: 4-19              [1, 197, 768]             [1, 197, 768]             1,536                     --                        1,536
│    │    │    └─MLPBlock: 4-20               [1, 197, 768]             [1, 197, 768]             4,722,432                 --                        4,722,432
│    │    └─EncoderBlock: 3-5                 [1, 197, 768]             [1, 197, 768]             --                        --                        --
│    │    │    └─LayerNorm: 4-21              [1, 197, 768]             [1, 197, 768]             1,536                     --                        1,536
│    │    │    └─MultiheadAttention: 4-22     [1, 197, 768]             [1, 197, 768]             2,362,368                 --                        0
│    │    │    └─Dropout: 4-23                [1, 197, 768]             [1, 197, 768]             --                        --                        --
│    │    │    └─LayerNorm: 4-24              [1, 197, 768]             [1, 197, 768]             1,536                     --                        1,536
│    │    │    └─MLPBlock: 4-25               [1, 197, 768]             [1, 197, 768]             4,722,432                 --                        4,722,432
│    │    └─EncoderBlock: 3-6                 [1, 197, 768]             [1, 197, 768]             --                        --                        --
│    │    │    └─LayerNorm: 4-26              [1, 197, 768]             [1, 197, 768]             1,536                     --                        1,536
│    │    │    └─MultiheadAttention: 4-27     [1, 197, 768]             [1, 197, 768]             2,362,368                 --                        0
│    │    │    └─Dropout: 4-28                [1, 197, 768]             [1, 197, 768]             --                        --                        --
│    │    │    └─LayerNorm: 4-29              [1, 197, 768]             [1, 197, 768]             1,536                     --                        1,536
│    │    │    └─MLPBlock: 4-30               [1, 197, 768]             [1, 197, 768]             4,722,432                 --                        4,722,432
│    │    └─EncoderBlock: 3-7                 [1, 197, 768]             [1, 197, 768]             --                        --                        --
│    │    │    └─LayerNorm: 4-31              [1, 197, 768]             [1, 197, 768]             1,536                     --                        1,536
│    │    │    └─MultiheadAttention: 4-32     [1, 197, 768]             [1, 197, 768]             2,362,368                 --                        0
│    │    │    └─Dropout: 4-33                [1, 197, 768]             [1, 197, 768]             --                        --                        --
│    │    │    └─LayerNorm: 4-34              [1, 197, 768]             [1, 197, 768]             1,536                     --                        1,536
│    │    │    └─MLPBlock: 4-35               [1, 197, 768]             [1, 197, 768]             4,722,432                 --                        4,722,432
│    │    └─EncoderBlock: 3-8                 [1, 197, 768]             [1, 197, 768]             --                        --                        --
│    │    │    └─LayerNorm: 4-36              [1, 197, 768]             [1, 197, 768]             1,536                     --                        1,536
│    │    │    └─MultiheadAttention: 4-37     [1, 197, 768]             [1, 197, 768]             2,362,368                 --                        0
│    │    │    └─Dropout: 4-38                [1, 197, 768]             [1, 197, 768]             --                        --                        --
│    │    │    └─LayerNorm: 4-39              [1, 197, 768]             [1, 197, 768]             1,536                     --                        1,536
│    │    │    └─MLPBlock: 4-40               [1, 197, 768]             [1, 197, 768]             4,722,432                 --                        4,722,432
│    │    └─EncoderBlock: 3-9                 [1, 197, 768]             [1, 197, 768]             --                        --                        --
│    │    │    └─LayerNorm: 4-41              [1, 197, 768]             [1, 197, 768]             1,536                     --                        1,536
│    │    │    └─MultiheadAttention: 4-42     [1, 197, 768]             [1, 197, 768]             2,362,368                 --                        0
│    │    │    └─Dropout: 4-43                [1, 197, 768]             [1, 197, 768]             --                        --                        --
│    │    │    └─LayerNorm: 4-44              [1, 197, 768]             [1, 197, 768]             1,536                     --                        1,536
│    │    │    └─MLPBlock: 4-45               [1, 197, 768]             [1, 197, 768]             4,722,432                 --                        4,722,432
│    │    └─EncoderBlock: 3-10                [1, 197, 768]             [1, 197, 768]             --                        --                        --
│    │    │    └─LayerNorm: 4-46              [1, 197, 768]             [1, 197, 768]             1,536                     --                        1,536
│    │    │    └─MultiheadAttention: 4-47     [1, 197, 768]             [1, 197, 768]             2,362,368                 --                        0
│    │    │    └─Dropout: 4-48                [1, 197, 768]             [1, 197, 768]             --                        --                        --
│    │    │    └─LayerNorm: 4-49              [1, 197, 768]             [1, 197, 768]             1,536                     --                        1,536
│    │    │    └─MLPBlock: 4-50               [1, 197, 768]             [1, 197, 768]             4,722,432                 --                        4,722,432
│    │    └─EncoderBlock: 3-11                [1, 197, 768]             [1, 197, 768]             --                        --                        --
│    │    │    └─LayerNorm: 4-51              [1, 197, 768]             [1, 197, 768]             1,536                     --                        1,536
│    │    │    └─MultiheadAttention: 4-52     [1, 197, 768]             [1, 197, 768]             2,362,368                 --                        0
│    │    │    └─Dropout: 4-53                [1, 197, 768]             [1, 197, 768]             --                        --                        --
│    │    │    └─LayerNorm: 4-54              [1, 197, 768]             [1, 197, 768]             1,536                     --                        1,536
│    │    │    └─MLPBlock: 4-55               [1, 197, 768]             [1, 197, 768]             4,722,432                 --                        4,722,432
│    │    └─EncoderBlock: 3-12                [1, 197, 768]             [1, 197, 768]             --                        --                        --
│    │    │    └─LayerNorm: 4-56              [1, 197, 768]             [1, 197, 768]             1,536                     --                        1,536
│    │    │    └─MultiheadAttention: 4-57     [1, 197, 768]             [1, 197, 768]             2,362,368                 --                        0
│    │    │    └─Dropout: 4-58                [1, 197, 768]             [1, 197, 768]             --                        --                        --
│    │    │    └─LayerNorm: 4-59              [1, 197, 768]             [1, 197, 768]             1,536                     --                        1,536
│    │    │    └─MLPBlock: 4-60               [1, 197, 768]             [1, 197, 768]             4,722,432                 --                        4,722,432
│    └─LayerNorm: 2-3                         [1, 197, 768]             [1, 197, 768]             1,536                     --                        1,536
├─Sequential: 1-3                             [1, 768]                  [1, 1000]                 --                        --                        --
│    └─Linear: 2-4                            [1, 768]                  [1, 1000]                 769,000                   --                        769,000
==========================================================================================================================================================================
Total params: 86,567,656
Trainable params: 86,567,656
Non-trainable params: 0
Total mult-adds (Units.MEGABYTES): 173.23
==========================================================================================================================================================================
…
